SRResNet/checkpoint/super_res_model.pth (torch, 767746 bytes, 136 tensors)

conv1.weight f4 [16, 3, 9, 9]
000000 40 a7 89 bd 5e eb 4b bd 76 c6 8a 3c 1a a8 5f 3d
       -0.067213535 -0.04978501 0.016940337 0.054603674
000010 70 fb 36 3d f1 26 03 bd 04 10 56 bd f3 ea 84 bd
       0.044673383 -0.03201956 -0.052261367 -0.064901255
000020 9f 78 28 bd 77 eb c0 bb e0 1f 13 bc 70 a5 87 bd
       -0.04113066 -0.0058874446 -0.008979768 -0.066233516
000030 33 a2 10 bc a3 9c 75 bd f8 b9 c4 bc 74 fe 3b 3d
       -0.008827734 -0.059963834 -0.024014458 0.045896962
000040 5f 87 25 3d 7c cb 31 bd f3 dc 35 3d e9 2f fb bc
       0.040412303 -0.04340695 0.044400167 -0.030662494
000050 07 92 6c 3d 06 b9 03 bd aa dc 07 3c 33 b8 5c 3c
       0.05775645 -0.032158874 0.0082923565 0.013471651
000060 b5 fc 8b 3c 68 c7 74 3c bc 86 fd 3b ae 0c 1f 3d
       0.017088274 0.01494012 0.007737009 0.03883045
000070 ca d8 e8 3c 54 60 98 3b 4d eb 1b bd 49 c8 40 3d
       0.028423686 0.004650155 -0.038066197 0.047066007
000080 ee 15 1c bc ed c8 35 bc 08 08 4e bd 8b e1 1e 3c
       -0.009526713 -0.011095268 -0.050300628 0.009697328
000090 3f 49 54 3d 15 49 e7 3c 31 6b 10 bd e7 cf 30 bd
       0.051827665 0.02823309 -0.035258476 -0.04316702
0000a0 b4 c1 8f bb 76 ee 0d bd c8 26 41 3c 9e c4 35 bd
       -0.004387105 -0.034651242 0.011789031 -0.044376962
0000b0 17 a9 85 3b bc fb 12 3b d2 68 2c 3d da 32 40 3d
       0.004078995 0.0022427877 0.042092152 0.046923496
0000c0 f2 4f b8 bb c5 fd db bc 87 e3 0b bd 9d b0 ff 3c
       -0.0056247646 -0.026854405 -0.034152534 0.031212145
0000d0 a4 ed b2 bc d7 c0 6d bc 91 31 07 3d e8 ca 8a bd
       -0.021841832 -0.014511309 0.033006255 -0.067769825
0000e0 97 9a ff bc f3 63 5a 3d 6c ff fc bc 13 39 e4 3c
       -0.031201644 0.053317975 -0.030883513 0.027859246
0000f0 b7 88 d8 bc af 50 6d bb e9 a0 8b bc 46 6f 5a 3c
       -0.026432378 -0.0036211421 -0.017044501 0.013332194
000100 37 0a 22 3d b0 21 04 3d 7a 0d 1c bc 7e 7d 92 3b
       0.039560523 0.03225869 -0.009524697 0.0044705262
000110 e9 61 68 bc 9e db 79 3c 3a c9 56 bd f3 fd f4 3b
       -0.0141835 0.015250115 -0.052438 0.007476562
000120 1c cd f1 3c a3 88 48 3d 2e fc 3a 3d df 79 5c bd
       0.02951675 0.048958432 0.045650654 -0.053827163
000130 b0 e4 34 3d 54 7a 7f bd c9 38 bd bc 1d 01 00 3c
       0.044163406 -0.06237252 -0.023098366 0.007812765
000140 65 aa 65 3d 71 19 88 bd 1b 12 bc 3a c2 f1 30 3d
       0.056070704 -0.066454776 0.0014348658 0.04319931
000150 c9 78 97 39 90 02 c7 3c 6d 91 98 3c c5 da 15 bd
       0.00028890956 0.024293214 0.018624032 -0.036585588
000160 0c 86 5c 3d 32 28 0e bd 4b 94 7e bc bc 46 34 bd
       0.053838775 -0.034706302 -0.0155382855 -0.04401277
000170 16 36 28 3d a3 38 bb 3c 27 ca 0a 3d 54 70 5e 3d
       0.041067205 0.022854155 0.033884194 0.054306343
000180 48 9e 61 3d 3d 20 5a bd 3e 70 1e bb 2c ea 7c bd
       0.05508259 -0.0532534 -0.0024175788 -0.06174676
000190 01 ce 58 3a 5f c4 6b bd c7 89 e5 bb 0c d1 93 3c
       0.0008270443 -0.05756032 -0.0070049497 0.018044017
0001a0 59 40 4d 3d 9e 70 2d 3d f3 8d 7b bc dd 19 6c 3c
       0.050110195 0.04234373 -0.015353668 0.014410463
0001b0 b2 0b 54 bd 77 e8 88 3c ea 53 8e bd b0 b8 1c 3d
       -0.051768966 0.01671241 -0.06949599 0.03826207
0001c0 e6 ad 37 bd 53 d2 3f 3c 7c 66 22 bd a3 b9 87 bc
       -0.044843577 0.01170786 -0.039648518 -0.01656801
0001d0 5f 5a 17 3c e6 64 6c 3d a6 0b cb bc ad 55 57 3d
       0.009237855 0.05771341 -0.024785828 0.05257194
0001e0 81 c7 e0 ba b7 22 08 3d b5 6b 03 bb 69 0c 10 3c
       -0.00171493 0.03323623 -0.0020053212 0.008792021
0001f0 3d cd 5e bd de c6 7f bd 81 db 9d 3c fb 81 79 3c
       -0.05439495 -0.062445514 0.019269707 0.015228744
000200 4f 99 a7 3c 8f 04 b0 3c a2 d1 07 3c fc 01 d4 ba
       0.020458845 0.021486549 0.008289726 -0.0016174908
000210 66 70 57 bd ea 75 c4 3b 00 3b 6a bd 21 e4 19 bc
       -0.052597426 0.0059955018 -0.057185173 -0.009392769
000220 f5 2c 37 3d c3 d5 61 bd f8 29 4c 3c a8 5c 4f bd
       0.04472061 -0.0551355 0.012461178 -0.050625473
000230 1b a6 38 3d d8 58 35 bd 5b 91 94 3c 6a af e9 bc
       0.045080286 -0.04427418 0.018135717 -0.028526027
000240 04 76 0b 3c c0 fd bd bc 40 62 04 3d 5c 09 7e bb
       0.008512024 -0.023192286 0.03232026 -0.0038762903
000250 09 61 88 bd 82 6d 8d bb fe 0e 87 bd 50 ed 3a bd
       -0.06659133 -0.004316033 -0.065946564 -0.045636475
000260 18 fe d1 bc 62 5b 68 bb b1 6e 0a bc b7 ac 18 bd
       -0.025633857 -0.003545486 -0.008449242 -0.03727409
000270 2c b4 42 bc c6 b1 7b bd 5e 75 15 bd 5f 54 ed bc
       -0.011883777 -0.061448835 -0.036488883 -0.028970895
000280 40 41 50 3d 84 c3 a1 3b 15 d0 67 b9 8d 28 1d bd
       0.050843477 0.0049366374 -0.00022107393 -0.03836875
000290 c5 87 39 3d 00 1a 60 bb ac 6c 12 bd 94 a7 29 3d
       0.045295496 -0.0034195185 -0.03574817 0.04141958
0002a0 cc 1b 08 bd 65 cd 86 bd 77 43 b8 bb f1 bd 95 3c
       -0.033229634 -0.06582145 -0.005623277 0.018279048
0002b0 ae 03 33 3a 6c cd 02 bd 33 39 00 bd f7 c6 56 3c
       0.00068288564 -0.031934187 -0.03130455 0.01310896
0002c0 72 4d 5d 3d 0c 49 85 bd 48 95 47 3d 21 78 e3 bc
       0.054028936 -0.06508073 0.04872635 -0.027767243
0002d0 c3 f3 97 bc 2b 6e 22 bd 29 d6 0d bd 40 7b ed bc
       -0.018548852 -0.039655846 -0.034628067 -0.028989434
0002e0 94 5e 0d 3c f8 72 16 bc c4 3e 09 3c ee b7 e1 3c
       0.008628506 -0.009182684 0.008376781 0.027553525
0002f0 f5 38 8a 3a 26 d3 41 3c 83 fa f8 3c 8d b7 34 bd
       0.0010545539 0.011830127 0.03039289 -0.04412036
000300 29 cc 80 bd 66 47 4b bd a8 31 11 3d a0 2c 9b bc
       -0.062889405 -0.049628638 0.035447747 -0.018942177
000310 1d 5d a1 bc 66 27 fd bc 33 6e 0b bd 3b f1 19 bd
       -0.01969772 -0.030902576 -0.03404064 -0.03758357
000320 55 0f 86 bc 63 39 24 bc ca 3b 44 3c 79 ab f3 bc
       -0.016364733 -0.010023448 0.011977145 -0.02974485
000330 c8 3c 33 bd c6 3c 8b 3b be 93 94 3c 8b 15 a5 3c
       -0.043759137 0.004249188 0.018136855 0.020151874
000340 8b 75 74 bd 6e 43 f9 3b 05 64 0c 3d bc 7d 75 bc
       -0.05968241 0.007606915 0.034275074 -0.014983591
000350 2e 51 10 3d da ba 70 bd f0 f4 08 3d 75 77 50 bd
       0.03523367 -0.058771946 0.033436716 -0.050895173
000360 a9 23 96 3c d9 b7 81 bd 8d 88 90 bc d0 94 fb bc
       0.018327551 -0.06333894 -0.017643237 -0.030710608
000370 db a0 19 3d 61 fc 41 3d c9 c9 21 3d e8 95 5c bb
       0.03750692 0.047359828 0.039499078 -0.0033658687
000380 73 36 51 bd 3b e5 8d bd 88 dc 7f bd 1d eb d7 bc
       -0.051077317 -0.06928488 -0.062466174 -0.026357228
000390 df b4 80 bd 58 93 96 bc 71 37 26 bd d2 07 63 bb
       -0.062844984 -0.018380806 -0.040580217 -0.0034642112
0003a0 9e a0 5e bc 23 32 0e 3d cb d2 63 3c dc 53 22 bd
       -0.013588099 0.034715783 0.013905237 -0.039630756
0003b0 de 86 49 3d ca ff 76 3c 19 0f c4 3c 33 8d 01 3c
       0.049200885 0.015075633 0.02393298 0.0079072
0003c0 c1 f8 15 bd c9 96 91 bd ea dd 55 3d 9c 1f 2c bb
       -0.036614183 -0.07108838 0.052213587 -0.0026263958
0003d0 d1 d1 0b 3d 7b 4e 39 3d 56 29 88 bb 58 0b 49 bd
       0.034135643 0.04524086 -0.0041553183 -0.049083084
0003e0 f5 51 e3 bc 95 61 77 3c 04 7d 7a 3c e8 30 89 bd
       -0.027749041 0.015098949 0.015288595 -0.06698781
0003f0 05 29 0e bc 64 e7 c7 bc 08 cc 31 bc 71 6c 63 bd
       -0.008676772 -0.024402328 -0.0108518675 -0.05552334

conv1.bias f4 [16]
000000 37 00 db 3c 1d bd 21 bd c5 69 dd 3b 58 78 55 bd
       0.0267335 -0.039486993 0.0067569935 -0.052116722
000010 4a c9 ca bb d1 b0 7c bb a2 d8 d5 3c a4 13 81 3c
       -0.0061885463 -0.003855754 0.026104275 0.015756436
000020 7d b6 d1 3c e3 35 a6 3c f0 c9 35 bd 2e 78 18 bd
       0.025599713 0.020289367 -0.044382036 -0.037223987
000030 ef f5 87 3d 88 07 86 3d c8 40 0a 3d 3c 1e 00 3d
       0.06638705 0.06544405 0.033753186 0.031278834

res_blocks.0.conv1.weight f4 [16, 16, 3, 3]
000000 e7 47 8f bc b2 fa 9e 3d 40 3a d7 bc cf 66 4a 3d
       -0.01749034 0.0776266 -0.026272893 0.049414452
000010 87 75 9c 3d 0e 28 9c 3d 59 a9 4a 3d 77 2a 9d bd
       0.07639604 0.07624827 0.04947791 -0.07674115
000020 c2 53 a6 bd 66 43 8d 3d fd 7b 0b 3c e6 1d 8d bd
       -0.08121444 0.06897621 0.008513448 -0.06890468
000030 f3 30 8c bd 9a 1f 3b 3d 8b 1f ba bc ab e7 a9 3c
       -0.06845274 0.045684434 -0.022720119 0.02074035
000040 96 e9 2b 3d 56 7a f5 bc da 09 a3 3d 2b 29 9e bd
       0.04197081 -0.02996556 0.079608634 -0.07722696
000050 7a 49 e3 bc 30 e5 af 3d aa 9a 9a bd c2 a5 26 3d
       -0.027744997 0.08588636 -0.07549031 0.040685423
000060 1c 4a 30 3d 2c 77 66 bd 27 29 8d bd b9 f1 04 bd
       0.043039426 -0.056265995 -0.06892615 -0.032457087
000070 9b 60 38 3d f6 7d 2e bd d4 c9 44 3d 09 d2 95 3c
       0.045014005 -0.042600594 0.04804404 0.01828863
000080 23 f9 95 bd e5 56 74 3b 7c 28 93 bd 8b 8b ec bc
       -0.0732291 0.0037283238 -0.07185456 -0.028875133
000090 93 2a 83 3d 44 eb 92 3d 8e da 98 bd 3e 0d e3 3c
       0.06404605 0.071737796 -0.07463561 0.027716275
0000a0 fc 53 f5 3c d7 76 62 bd 2c b4 27 bd 7d 43 2b 3b
       0.029947273 -0.055289116 -0.04094331 0.0026132755
0000b0 e6 b1 9e bd 1a 65 e7 bc e0 15 9e 3d 5c 6d e1 3a
       -0.07748775 -0.028246451 0.07719016 0.0017198729
0000c0 87 8f fd 3c b9 16 08 3d ff de 9a 3c c7 8b 6d 3d
       0.030952228 0.033224795 0.018905161 0.05799463
0000d0 12 04 4d bc 56 43 a6 bd 19 de 7a bd fc 64 ce bb
       -0.0125131775 -0.08118312 -0.061246965 -0.0062986594
0000e0 16 06 99 ba 88 30 75 bd 85 60 c0 bc d5 96 b8 3c
       -0.0011674787 -0.059860736 -0.023483524 0.02253286
0000f0 ba 0a 16 3d 94 4a 5d bb 7a df 93 3d 82 f9 52 3d
       0.036631323 -0.0033766376 0.07220359 0.05150748
000100 60 78 92 3d 9b 4a 69 3d 9a 72 65 3c 48 38 77 bd
       0.07151866 0.056955915 0.014004374 -0.06035641
000110 d4 ba 80 3c f3 38 af bd af db 4d 3d 7c 6d 48 3d
       0.015714087 -0.08555784 0.050258335 0.048932537
000120 d1 2e 64 3d 47 59 38 bc 8d 17 5b bb 6d 1b 82 3c
       0.05570871 -0.011251754 -0.0033430785 0.015882218
000130 da 39 3a bd ee f5 99 bd 61 97 a0 bc 19 15 19 3a
       -0.045465328 -0.075176105 -0.019603433 0.00058396306
000140 2e b4 cd bb fc 08 23 bd 73 c3 69 bd 02 a9 3e bd
       -0.0062775826 -0.03980349 -0.05707116 -0.046547897
000150 7a c6 83 3d 51 2c 53 bc f7 ee 81 3d 8e ec 92 bd
       0.06434341 -0.012888984 0.06344407 -0.071740255
000160 18 0b 1d 3c 1f 98 13 bd 2f 64 ac bd 69 f2 8d bc
       0.0095851645 -0.036033746 -0.08417546 -0.017327504
000170 cd af ad bd fb 11 72 bd 60 25 4f bd dd 85 84 bd
       -0.08480797 -0.05909918 -0.050572753 -0.06470845
000180 90 1f e5 3c 03 ce 4b bc 34 1f 79 3b ac 97 a6 3c
       0.027969152 -0.012439254 0.0038012983 0.020335995
000190 49 9d 4b bd c6 77 d1 ba 63 a4 94 3d ad 08 28 bd
       -0.049710546 -0.001598113 0.07257917 -0.0410239
0001a0 4d d6 fc 3c 5d e7 e5 3a b3 4e 41 3c f1 a6 59 3d
       0.030863905 0.0017540265 0.0117985485 0.053137723
0001b0 a8 6b b0 bd 17 73 15 bd 7a a1 70 3d b1 17 47 bd
       -0.08614284 -0.03648671 0.058747746 -0.04860658
0001c0 04 6c 4e 3c 2a 5f 54 bc d3 ce 8f 3d af 00 40 bd
       0.012598995 -0.012962142 0.070218705 -0.046875652
0001d0 12 f9 a1 bd 56 a5 9f bd 63 af a3 3d 5e e5 4c bb
       -0.079088345 -0.07795207 0.07992437 -0.0031264643
0001e0 3d 12 2c bd de 7a 06 3d 59 5a 1c bd 12 b6 30 3d
       -0.04200958 0.03283202 -0.0381721 0.043142386
0001f0 8b 56 35 bc 11 b3 ab 3d 90 42 93 bd 59 8a 06 3d
       -0.011067997 0.083837636 -0.0719043 0.032846782
000200 d4 2b a0 bd d2 ea 85 3d 4b d1 89 3d 29 ea f1 bc
       -0.078208596 0.06538929 0.067293726 -0.029530602
000210 af d6 80 bb cb e8 a5 bd f5 23 11 bd 95 82 7c 3d
       -0.0039318423 -0.08101042 -0.035434682 0.06164797
000220 9a 66 a3 bd 28 de ab bb ad 1b 97 bd b7 70 fe 3c
       -0.07978554 -0.005244989 -0.073783256 0.031059606
000230 9b 7b 20 3d de 12 b1 3c 07 85 39 bd 1a 12 7d bc
       0.03918038 0.021615442 -0.04529288 -0.01544621
000240 8b 81 19 3d a4 6b 4c 3b 1e bf 93 bd 1a 7f 79 3d
       0.037477057 0.0031192088 -0.07214187 0.06091223
000250 20 f1 9e 3d 78 45 43 bd 71 a2 93 bd f6 e0 2c bd
       0.07760835 -0.047673672 -0.072087176 -0.042206727
000260 7f d9 b2 bc fa 7a 54 bd d7 58 f7 3c 39 82 b4 3c
       -0.021832226 -0.051875092 0.03019373 0.022034751
000270 71 4e 0f bd 05 9e ce 3c 3d 4f 99 3d 21 23 17 3d
       -0.034986917 0.025221834 0.07485817 0.036898736
000280 a0 8b a4 3d a2 5b 1c 3d 9d 78 89 bc 75 10 e8 bc
       0.08034444 0.038173325 -0.016781146 -0.02832816
000290 8b 09 1a 3c 36 0b c6 bc 4f 53 92 bd 84 e1 93 bd
       0.009401689 -0.024175268 -0.07144796 -0.07220748
0002a0 db 07 0e bd d6 f2 99 3d f4 c0 92 3d 19 81 b1 bc
       -0.03467546 0.075170204 0.07165709 -0.021668004
0002b0 ef a6 e7 3c 97 bc ab 3c 1c ad 0e 3c 56 4e 42 bd
       0.028277842 0.02096395 0.008708265 -0.04743799
0002c0 2b 0a 5a 3d f2 f8 b8 3c 63 46 b4 bd 08 d4 3a bd
       0.053232353 0.022579644 -0.08802488 -0.045612365
0002d0 d5 87 5b bd 8a bc 79 bc f8 2b 52 3d 03 36 c7 3c
       -0.053596336 -0.015242705 0.051311463 0.024317747
0002e0 43 29 76 bd e4 f3 8b bd 0e 3d 1a 3d f5 29 29 3d
       -0.060097944 -0.06833628 0.037655883 0.04129978
0002f0 87 72 5d 3d a7 79 3b bc aa 4c 2c bd b4 cc 7d bd
       0.0540643 -0.011442578 -0.0420653 -0.0619628
000300 da 45 24 3d 8e 22 38 3d 97 b7 53 bd db 3e 66 3d
       0.04010568 0.04495483 -0.051688757 0.056212287
000310 90 0f 39 3c ee d4 42 bd 4d 01 5a 3c f4 a7 17 bd
       0.011295214 -0.047566347 0.013305974 -0.037025407
000320 05 a5 e3 bc e3 6b 4e bd 2f 1b 58 3d 35 56 a0 bc
       -0.027788648 -0.050395858 0.0527603 -0.019572357
000330 90 87 b1 3b 65 32 0b bd de ef 51 3d d1 3c aa bc
       0.0054177716 -0.033983607 0.051254146 -0.020780953
000340 f9 1c d9 bc b9 da 99 bc 15 4b ef 3c 0a f8 c4 3c
       -0.026503073 -0.018781053 0.029210607 0.024044055
000350 d9 12 91 3d c9 02 53 bc 37 e9 5e 3d 69 5a 88 3c
       0.07083673 -0.012879082 0.05442163 0.016644673
000360 b9 62 7a 3c 09 af 30 bd 61 e5 97 3d a2 c8 7c bd
       0.015282326 -0.043135677 0.074167974 -0.061714776
000370 ab b3 3e ba 34 25 70 3d fc 9f 9f bd a2 bf 85 3c
       -0.00072746974 0.05862923 -0.077941865 0.01632673
000380 5b 01 ae 3c 08 b9 94 3d d0 1f c2 bb 44 1b 61 bc
       0.02124088 0.072618544 -0.0059242025 -0.013739411
000390 a8 60 14 bc a7 d0 ee bc f9 d6 51 3d 38 22 f2 3c
       -0.009056248 -0.029152228 0.051230405 0.029557332
0003a0 de 48 79 bc 6d 7a 9f bd 11 e2 8c 3d 89 e1 35 bd
       -0.015215127 -0.07787023 0.06879056 -0.04440454
0003b0 82 48 05 3d ed 02 9d bc 48 8c 6d 3d ff 40 73 bd
       0.032539852 -0.019166434 0.05799511 -0.059388157
0003c0 13 67 9e 3d e1 ca 09 bd 39 5d 46 3c ef be a4 3d
       0.077345036 -0.033640746 0.012107187 0.0804423
0003d0 86 4a f5 3c d1 c3 6c 3d 9a c0 c4 bb 96 17 88 3d
       0.029942762 0.057803933 -0.006004405 0.06645124
0003e0 c3 66 38 3d 7b dd 55 bd 04 60 04 bd 39 b2 71 3d
       0.045019876 -0.052213173 -0.03231813 0.059007857
0003f0 5e a1 96 bd 65 0d b3 3b df 2c 32 bd 46 ac be 3c
       -0.07354997 0.0054642432 -0.043499824 0.023275506

res_blocks.0.conv1.bias f4 [16]
000000 65 f5 c6 bc 5c ad 8c bd 13 33 a2 bc 2f 47 3c bd
       -0.024286935 -0.06869003 -0.019799745 -0.045966323
000010 bc aa 3a 3d f4 f3 85 3d 01 0e bb 3c 48 4f d3 bc
       0.04557298 0.06540671 0.022833826 -0.02579464
000020 8a db 4e 3d 71 00 b0 bd 7c 04 cd 3c 73 d7 b7 bd
       0.050502338 -0.08593834 0.025026552 -0.089766406
000030 da 6c aa 3d 2f 3a d9 3c af 0c 7d 3d 2a dc 1b bd
       0.08321543 0.026517002 0.061779674 -0.03805176

res_blocks.0.conv2.weight f4 [16, 16, 3, 3]
000000 90 17 33 bd aa e2 ae ba ea 21 20 bd 66 1a 4d 3d
       -0.043723643 -0.0013342698 -0.039094843 0.050074004
000010 8d 8e 90 3d 20 6d 51 bc b6 b0 dc 3c 5e fc 92 3c
       0.070584394 -0.012782365 0.026939731 0.017942604
000020 a3 b8 34 bd d4 3a 0c 3d a3 78 42 bb 49 d0 62 3d
       -0.044121396 0.03423579 -0.0029673956 0.055374417
000030 2b 95 a5 bb d9 76 4d 3c b5 1e c9 3c 58 42 a3 3d
       -0.0050531826 0.0125405425 0.024550775 0.079716384
000040 44 d1 82 bd ec 1e 11 bd 1f 81 c5 3b 46 c6 08 3d
       -0.063875705 -0.03542988 0.0060273553 0.033392213
000050 9c b2 54 bb 4b 83 f8 3c f0 06 bf 3d 16 56 75 bd
       -0.0032455092 0.030336043 0.09327495 -0.05989655
000060 15 0b 40 bd cd 04 34 bd 86 03 c2 3c f6 a9 67 3c
       -0.04688557 -0.04394989 0.02368332 0.014139643
000070 e6 12 35 bc 66 37 34 bd 40 f9 1d 3c e4 94 8e 3d
       -0.011051869 -0.043998145 0.009641945 0.069619924
000080 7e ba 37 bd ca 51 dc bc 61 3d 86 bc ce a2 35 bd
       -0.044855587 -0.026894469 -0.01638669 -0.044344716
000090 f4 73 9d 3d 40 eb 6c bb 68 c8 19 bd 24 59 d4 bc
       0.07688132 -0.0036150962 -0.037544638 -0.025921412
0000a0 35 fd 9d 3d 3d 8d 41 3d f2 b2 5c bb 0a 55 33 bd
       0.07714311 0.047253836 -0.0033675996 -0.04378227
0000b0 5d 72 4f bd b5 20 a1 bd d2 79 3f 3c 69 67 54 bd
       -0.050646175 -0.078675665 0.011686759 -0.051856432
0000c0 d9 57 6d 3d 34 62 41 bd 75 bb 85 3d 42 09 74 3c
       0.057945106 -0.047212794 0.06529895 0.014894785
0000d0 84 10 cb 3d 02 61 99 bd ea d2 3b bd 1e cc 01 3d
       0.099152595 -0.07489206 -0.04585544 0.031688802
0000e0 68 95 6c 3d c6 54 70 bd b9 b1 80 3d 5f e0 aa bb
       0.057759672 -0.058674596 0.06283898 -0.0052147354
0000f0 d7 6d 9a 3d f0 e2 87 bd 26 b6 cb bc 85 19 9c bc
       0.075404815 -0.06635082 -0.024867129 -0.019055137
000100 18 3d de bc c0 97 f0 bc d6 90 8a 3d 3d f0 45 3d
       -0.027128741 -0.029369235 0.067659065 0.048324812
000110 04 98 64 3d 97 d9 b5 bd 1b 0d dc 3b 1c 30 c2 3c
       0.055809036 -0.088793926 0.0067154295 0.023704581
000120 b7 94 af 3d 95 70 7e bd ba 5b 97 bc 90 e8 83 bd
       0.08573287 -0.062119085 -0.018476356 -0.06440842
000130 cc 99 29 3c 05 63 a9 3d 0a 0b 7b 3d e0 33 08 3d
       0.010351609 0.082708396 0.061289825 0.033252597
000140 80 8f a7 3d 0d 61 58 bd 9e d9 93 3d 37 b3 2b bd
       0.08181667 -0.05282693 0.072192416 -0.04191896
000150 d4 1e a0 bb 68 fe 20 3d d2 a0 db 3c fc cc 52 bd
       -0.0048864875 0.03930512 0.026810084 -0.05146502
000160 8d b5 9a 3c 60 8c 39 3c a1 0d fc bc df 7d 9b 3c
       0.018885398 0.011324972 -0.030768218 0.018980918
000170 0a 76 82 bd 6c a3 3c bd 33 ab 63 bd db 5e 46 bd
       -0.063701704 -0.04605429 -0.05558319 -0.048430305
000180 72 40 ad 3d a7 7b 39 3b 27 ed 7e bd 1c 14 8b bd
       0.084595576 0.0028302462 -0.062237885 -0.06790945
000190 34 6a 4e bd 91 03 a7 3d 86 f8 de 3c 14 8e db 3c
       -0.050394252 0.08154977 0.027218115 0.026801147
0001a0 9d da 57 3d c8 0d de 3c 3f 22 5b bd 4d 7e 3d bc
       0.05269872 0.02710618 -0.053499456 -0.011565757
0001b0 ad e2 b5 bc ec 77 02 3d 1f 6e 43 bd 50 c2 79 3d
       -0.022202814 0.031852648 -0.04771244 0.060976326
0001c0 7c df ba bb 00 67 a2 3d 63 55 bb bc b7 4c 88 bb
       -0.005702911 0.07929802 -0.022867864 -0.0041595357
0001d0 9f b0 57 ba ff 91 aa 3d e3 67 a3 3d f8 20 01 bc
       -0.0008227918 0.08328628 0.07978799 -0.0078813955
0001e0 66 6e a7 3d f4 5b 80 3d be f5 4b 3c 68 5d 8d 3d
       0.08175354 0.06267539 0.012448726 0.069025815
0001f0 70 d2 33 3d 1a 28 02 3c 59 f5 b6 3d 49 91 05 3d
       0.04390186 0.007944131 0.08933515 0.032609258
000200 d3 40 6c 3d ca 56 b4 3d 3f 7c 09 3e 5d de 53 3d
       0.05767901 0.08805616 0.13426302 0.051725734
000210 bc 5b 42 3d 58 9f 48 3d 1e d4 d3 3d 1b b5 5b bd
       0.047450766 0.048980087 0.103431925 -0.053639513
000220 1f 92 81 3d 85 b2 0f bc b3 10 06 3c 23 56 9d 3d
       0.063266985 -0.00877059 0.008182692 0.07682445
000230 30 98 e2 bb 74 a8 ed 3c bf 55 2b bd 3f 99 51 3b
       -0.006915115 0.029010989 -0.04182982 0.003198221
000240 b5 df 62 bd 0d 26 07 3d 19 44 aa 3a 5b 5c 94 3c
       -0.055389125 0.032995272 0.0012990265 0.018110445
000250 29 e6 8c bc c2 24 b8 3c 9b 54 be bb f5 40 74 bd
       -0.017199593 0.022478465 -0.0058084256 -0.05963226
000260 1f bc e2 bc 6d d9 02 3d f4 d9 59 bd 92 f2 fd 3c
       -0.027677594 0.031945635 -0.053186372 0.030999456
000270 df ea 24 3d 32 29 68 bd 0c 34 07 bd e0 5f 68 bd
       0.040263053 -0.056679912 -0.03300862 -0.05673206
000280 76 8c 5e bd b1 4e 8a bd 3c ed b7 bc 1a b2 8d 3a
       -0.054333173 -0.067532904 -0.02245199 0.0010810525
000290 34 92 ab 3d 09 61 e3 3c b3 10 2b 3d ff 3d 66 bc
       0.083774954 0.02775623 0.041763972 -0.014052867
0002a0 48 a4 91 bc 11 94 26 bd 72 ad 42 bb d7 6e 06 bd
       -0.01777853 -0.04066855 -0.0029705432 -0.03282055
0002b0 10 98 83 3d 6b dd c5 bb b1 c5 bf 3b fa 59 a7 bd
       0.06425488 -0.006038358 0.005852424 -0.081714585
0002c0 20 8d 8d 3d d2 0c 03 bd 76 fc 1f 3d 0f 45 5b bc
       0.06911683 -0.03199465 0.039059125 -0.013383164
0002d0 a2 70 3b 3d 0c d5 03 bd 28 43 20 3d 9f e0 06 3d
       0.045761712 -0.0321856 0.039126545 0.03292906
0002e0 a1 27 75 3d 0d 16 58 bd 3d 37 29 3b c8 41 67 bc
       0.059852246 -0.052755404 0.0025820278 -0.014114805
0002f0 23 28 0f ba f5 2d 63 bc f6 f0 9c 3d ce 3a cd bc
       -0.0005460998 -0.0138659375 0.07663147 -0.025052454
000300 c7 04 ac 3d 4f e6 a4 3d 0e 90 1c 3b db 4f 0a 3b
       0.08399349 0.080517404 0.0023889574 0.0021104726
000310 77 ae 93 3d 95 18 33 bd 19 43 81 bd 14 d5 ab 3d
       0.07211011 -0.043724615 -0.06311626 0.08390251
000320 75 bf 3b bd 82 18 a0 bb ea 53 13 3d ef fc 01 bd
       -0.045836885 -0.004885734 0.0359687 -0.031735357
000330 e2 d5 94 3c 21 40 8c 3c 8f 10 3e 3d a0 fc ac 3d
       0.018168394 0.017120423 0.04640251 0.08446622
000340 c1 81 1e bd 7b cc 95 bc ad b2 8d bd e9 98 41 3d
       -0.03869796 -0.01828598 -0.06918845 0.047264967
000350 97 62 19 3c c5 25 16 3d 33 b5 6f bd ca 27 0b bd
       0.009361885 0.036657114 -0.058522414 -0.033973493
000360 fe 62 06 bd d8 fa 0d 3d dc d4 4b bd 01 55 30 bd
       -0.03280925 0.03466305 -0.049763545 -0.043049816
000370 68 75 89 3d 21 8a a1 3d c0 e1 4f 3d 88 60 dd bc
       0.067118466 0.07887674 0.0507524 -0.027023569
000380 6b 0c 9b bc 34 2d be bc bf 34 46 bd 5b cb d0 bb
       -0.01892682 -0.023214914 -0.048390146 -0.006371898
000390 a1 ce 3c 3d 4d 66 82 bc 58 91 19 bd 1d f7 0b 3d
       0.046095494 -0.015917921 -0.037492126 0.034171212
0003a0 83 12 29 3d f8 3f 91 3d 13 74 3e bc 43 1d 14 bd
       0.04127742 0.07092279 -0.011624354 -0.03616072
0003b0 8e c2 f9 bc f3 2e 94 3d 69 1e 8b 3c 24 18 46 3d
       -0.030488279 0.07235517 0.016982274 0.048362866
0003c0 32 a7 d3 bc cd 54 51 3d 15 10 74 bd 8b 65 1b bd
       -0.02583656 0.051106263 -0.05958565 -0.037938636
0003d0 cb d9 36 bd 7c c6 5d 3d e8 db 96 3d 4e c9 0a bc
       -0.044641297 0.054144368 0.073661625 -0.008470846
0003e0 29 52 77 3b da b6 7a 3d c0 f2 90 bd 53 c5 a4 bd
       0.003773818 0.061209537 -0.07077551 -0.08045449
0003f0 a6 fd 4d bd 06 37 9a bd e7 2d 8c 3c 31 c5 94 bd
       -0.050290726 -0.07530026 0.017111732 -0.07264174

res_blocks.0.conv2.bias f4 [16]
000000 f5 e1 4f bd 49 d9 d3 bb 45 d9 0a 3c d6 80 6a 3c
       -0.0507526 -0.0064651114 0.008474653 0.014312943
000010 30 8f 01 3c 0a a3 2a 3d 0a 15 3e bd 57 19 00 3d
       0.007907674 0.041659392 -0.046406783 0.031274166
000020 be 41 81 3d 15 d6 53 bb 75 27 ca 3b 0c 49 03 3d
       0.063113675 -0.0032323648 0.0061692544 0.032052085
000030 64 b1 f9 3b b3 f4 9c bd 38 85 71 3d bd 8b e9 3c
       0.0076200236 -0.0766386 0.058964938 0.028509015

res_blocks.1.conv1.weight f4 [16, 16, 3, 3]
000000 7b dc cf 3c e0 e3 51 bd 8d 78 bc 3c c4 60 e4 3c
       0.025373688 -0.05124271 0.023006702 0.027878173
000010 68 43 3a bc 3b 8d 00 3d 34 a9 0a 3d a7 82 8c bd
       -0.01136861 0.031384688 0.03385277 -0.068608575
000020 ab b4 fe bc 0c 29 c0 3c 80 26 a5 3c 2a 3a 16 3d
       -0.031092009 0.023457073 0.02015996 0.036676563
000030 a5 48 8e bc fc 3f 5a 3d 44 9c 3c 3d a1 aa 2d 3b
       -0.017368624 0.053283677 0.046047464 0.0026499408
000040 0e 9e 8b bc 44 82 66 3d 14 b0 9e bd 9f 3c cf bc
       -0.01704314 0.056276575 -0.07748428 -0.025297461
000050 33 bd 86 bc 82 50 ab bc 81 2d 5f bc fa 57 96 bd
       -0.01644764 -0.020912413 -0.013621689 -0.07340999
000060 13 dc 86 bd df 26 99 3d 50 bb 9a bd 8d 6d 7a bd
       -0.065849446 0.07478117 -0.07555258 -0.061139632
000070 5e 17 f4 3c 66 c6 95 3c 13 23 04 bc e5 46 82 3d
       0.029796299 0.01828308 -0.008065003 0.06361178
000080 e4 2b a9 bd 23 5e 10 bd a7 f3 da bc ca 64 95 3d
       -0.082603246 -0.035246026 -0.02672751 0.072946146
000090 98 65 84 3d 89 34 da bb a8 8a 1e bb 51 58 8f 3d
       0.0646469 -0.0066590947 -0.0024191532 0.06999267
0000a0 60 9b 15 3d 24 d1 68 bd 5e 22 b3 bd 83 65 7d 3d
       0.03652513 -0.056840077 -0.087467894 0.061864387
0000b0 58 a9 03 3d ea b1 34 3d 49 3f 1e bc 79 bc 99 bc
       0.03214392 0.044114985 -0.009658643 -0.018766629
0000c0 2b 0b 97 3d e2 39 0b 3d 45 e1 81 3d a8 48 94 3d
       0.07375177 0.03399075 0.06341795 0.072404206
0000d0 b9 44 82 bd f6 a8 04 3d 15 1b 8d bc 04 1a 96 bb
       -0.06360764 0.032387696 -0.017224828 -0.004580738
0000e0 c3 47 35 bd da 9f b8 3b c8 2a 39 3c 0f 12 b0 3c
       -0.04425789 0.00563429 0.011301704 0.021492986
0000f0 fc 69 67 bd e2 b7 6e bd 3c f3 a2 bd c6 ea ba 3c
       -0.05649756 -0.058280833 -0.079565495 0.022817027
000100 9f 3e 0a bd 93 e8 11 bd 31 1d 52 3d cd 33 9c bd
       -0.033751126 -0.03562219 0.05129737 -0.07627068
000110 3a a3 a7 bd 8b b5 7a bd 8c 42 92 bd 53 58 f3 bc
       -0.0818543 -0.06120829 -0.07141599 -0.029705202
000120 f9 60 99 3d db fa 2c bd a9 1b 24 3c 40 5e b0 bd
       0.07489199 -0.042231422 0.01001636 -0.08611727
000130 2e b4 87 3c b6 df 1b 3c 34 34 8f bc 6d 3a c2 3c
       0.016565409 0.009513786 -0.017480947 0.0237095
000140 87 06 9f 3d 63 76 43 3d a4 39 83 bd 29 6c 0b 3d
       0.07764917 0.047720324 -0.064074785 0.034038696
000150 6a ff db bc 68 78 75 3c 00 ee 15 bd d9 f7 4b bc
       -0.02685519 0.01498232 -0.036603928 -0.012449228
000160 44 5f c1 bc 71 a7 8c 3d c1 f9 64 bd 8f f3 9a bd
       -0.023604997 0.068678744 -0.055902246 -0.07565986
000170 23 8e 5a 3c 8c 4b 7b bb 64 2f 95 bc 67 a4 0f 3d
       0.013339552 -0.003834459 -0.018211074 0.035068896
000180 6f 42 50 3d 3c e6 9f 3d 23 c2 60 3d df c0 af bc
       0.050844606 0.078075856 0.054872643 -0.021454273
000190 6e a1 38 3d 47 d1 fc 3c 59 e9 63 3a 16 c4 a1 bc
       0.045075826 0.03086151 0.00086941343 -0.019746821
0001a0 6f a5 3b bb 43 2e 40 3d 5e 89 d0 bc 37 3c bb 3c
       -0.0028632542 0.04691912 -0.025456127 0.022855861
0001b0 50 56 68 3d 1b 1a a3 bd da 62 0b 3d 0a 41 9f bc
       0.05672294 -0.079639636 0.03402982 -0.019440193
0001c0 25 46 fb 3c 3d 71 9b 3d b6 1a 48 bd 56 53 42 bd
       0.030673096 0.07589958 -0.0488536 -0.047442757
0001d0 07 ad 5e bd 65 07 37 bd c9 4f 1e 3b a1 3d 8f bb
       -0.05436423 -0.044684786 0.0024156442 -0.0043713604
0001e0 87 52 ad bd d1 34 ee bc 3a d5 85 bb 8a 9f 26 bd
       -0.084630065 -0.02907792 -0.0040842565 -0.040679492
0001f0 00 60 a1 bd 11 c7 a2 3c 98 a7 8a 3d 40 45 6f 3d
       -0.07879639 0.019870313 0.06770247 0.05841565
000200 9e d8 13 bd 76 a1 8f bd 06 c7 34 3d 71 93 83 3d
       -0.036095254 -0.07013218 0.044135116 0.064246066
000210 48 d7 92 3d 1c 4d 96 bd 8c fd 1d 3b 4c 09 0b bc
       0.07169968 -0.07338926 0.0024107425 -0.008486103
000220 8c ae 6e 3d 35 21 64 bd c8 1f 05 bc 3a d4 19 bd
       0.05827193 -0.05569573 -0.008125253 -0.03755591
000230 94 56 48 bd 2f d0 94 3d 3b 57 4d 3c e3 6e f0 bc
       -0.048910692 0.0726627 0.012533004 -0.02934975
000240 7c 3f 31 3d 12 d3 9a 3c 7a ca f1 3d 83 88 f4 3d
       0.043273434 0.018899474 0.118061975 0.119401
000250 60 43 95 3d 99 11 00 3e de 2d 8a 3d eb c4 ae bd
       0.072882414 0.12506713 0.0674703 -0.08533653
000260 7a 03 9f 3d 5b a0 17 3d 8e b2 c7 3d 24 15 5d bd
       0.07764335 0.03701816 0.097508535 -0.05397524
000270 2b a3 c4 bc a5 ac 9d 3d 5c e1 8d 3d d5 27 2a 3d
       -0.024003586 0.07698945 0.069277495 0.041541893
000280 10 32 c6 3d 65 44 67 bd c7 72 da 3c 4e 58 0c 3e
       0.096775174 -0.05646171 0.026666058 0.1370556
000290 dc 31 94 bd 91 92 bd bb 1e 94 43 bd 54 a3 a9 bd
       -0.072360724 -0.0057852943 -0.047748677 -0.082831055
0002a0 d5 ff 65 bc 14 97 87 3d 7b 8c 33 3d 2a e6 8d bb
       -0.014038046 0.06620613 0.043835144 -0.004330416
0002b0 a2 5d 90 bd ba 8e c5 bd 48 c3 64 bc 3c 2b 3a bd
       -0.07049109 -0.096463636 -0.013962574 -0.045451388
0002c0 01 2c ce 3a 4f 90 2f bd 27 c5 13 bd a9 9f f1 bd
       0.0015729667 -0.042862233 -0.03607669 -0.11798031
0002d0 e1 b7 f4 3d 54 bf 07 3e 28 d0 f8 3d b2 56 b8 3d
       0.119491346 0.1325658 0.12149078 0.09000911
0002e0 13 03 33 3e 24 f1 94 3b fe b5 b7 3c f0 1a b1 bd
       0.17481641 0.0045453478 0.022425648 -0.08647716
0002f0 46 02 c4 3c ec 63 46 3d bf a2 a9 3c cf 14 2c bd
       0.023926865 0.048435137 0.020707486 -0.042012032
000300 13 a4 3e bc 4a fc 31 bd 5b ad c8 bc 68 ac 86 bd
       -0.011635798 -0.043453492 -0.024496725 -0.06575853
000310 7f 30 96 bd 69 75 85 3d 37 29 2a be 7f 3e 61 bd
       -0.07333469 0.06516535 -0.16617285 -0.05499124
000320 0a 23 3e be f4 a9 7d bd ab 98 17 3e 28 82 ef 3d
       -0.18568054 -0.061929658 0.14804332 0.11694747
000330 90 2c 0f bc be 7d 8f bd ef 09 14 3d 1d 5c a4 bd
       -0.008738652 -0.07006405 0.036142286 -0.08025382
000340 54 bb eb 3c 92 a5 64 bd bb 7f a3 bc b4 64 f4 3c
       0.028775848 -0.055821963 -0.019958368 0.029833175
000350 3a c8 0d 3d 8e ce e6 3c d4 1a cf bd 80 31 b9 3c
       0.03461478 0.028174665 -0.10112539 0.022606611
000360 38 fa 72 3d c7 42 78 3c 03 e0 af bd f0 db 23 3d
       0.05932066 0.01515264 -0.08587649 0.04000467
000370 f6 5f 6e 3d 2e 76 1d bc 12 74 3d 3b 3f 98 a3 bc
       0.058196984 -0.009610696 0.0028908295 -0.019970058
000380 fe 37 99 3b 8b a3 89 3d d4 ed 87 3c 42 4c 7f bc
       0.0046758642 0.067206465 0.016592897 -0.015582146
000390 4c 4d a5 ba 66 25 2d 3c 42 be 07 3d 52 8f f6 bc
       -0.0012611537 0.0105679985 0.03314043 -0.030097637
0003a0 de 0d 96 3d 94 dc f0 bc 60 be ee bc 6a 76 95 bd
       0.07326864 -0.029402055 -0.029143512 -0.07297976
0003b0 51 c4 45 bd 52 ab 85 3d 7e 37 13 3d 97 32 1f 3d
       -0.048282925 0.065268174 0.035941593 0.038866606
0003c0 5b a5 d7 3d 81 7c 6c bd d5 fd ae 3d 69 f7 a0 3d
       0.10529586 -0.057735924 0.08544508 0.0785969
0003d0 94 6b ec 3d 04 4a fd 3c 15 19 28 3d 77 9f 3a bd
       0.115439564 0.030919082 0.041039545 -0.045562234
0003e0 d3 24 b1 bc 31 fe 59 3d 14 b8 18 bd 59 ea 37 bd
       -0.021624004 0.05322093 -0.037284926 -0.044901226
0003f0 a3 13 48 bd fa 78 d0 3d aa 82 43 bd 6d 03 c4 3d
       -0.048846852 0.101793244 -0.047732033 0.09570966

res_blocks.1.conv1.bias f4 [16]
000000 0f 13 77 bd 6f 58 86 3b d6 c5 67 bd 84 c3 9e 3d
       -0.06032091 0.0040998976 -0.056585155 0.077521354
000010 f6 78 f8 bc d6 0b 42 bd e9 62 96 bc 3a dd dc bc
       -0.030331116 -0.04737457 -0.01835771 -0.026960958
000020 d2 08 51 bd 58 2c 15 bd b8 dd d7 3c eb 93 52 3d
       -0.051033802 -0.036419243 0.02635084 0.051410597
000030 26 48 f0 bc b3 e3 6c 3c 70 89 a5 3c 0a cf 7f bd
       -0.029331278 0.014458585 0.020207137 -0.062453307

res_blocks.1.conv2.weight f4 [16, 16, 3, 3]
000000 1e 57 7a bd ea 6c 5c bd 8d ea 82 bd e0 5c fd bc
       -0.061118238 -0.053814806 -0.06392393 -0.030928075
000010 1f db 7a 3d 87 a4 88 3c f3 a3 1e bd 80 59 70 3d
       0.061244126 0.016680015 -0.038730573 0.058679104
000020 35 d7 ab 3d ff 73 c2 3c e3 b2 00 bd fb d2 11 bd
       0.08390657 0.023736952 -0.0314206 -0.035601597
000030 d7 1f 5c 3d 8b 89 88 bc 5b 0d ac 3d 47 9f 85 bb
       0.053741302 -0.016667148 0.08400985 -0.004077825
000040 5c 76 20 3e 0e e8 8c 3b 1c 14 72 3d f6 70 51 3d
       0.1567015 0.004300124 0.05910121 0.05113312
000050 f7 0c 74 bd e1 c7 85 bd 4f 88 45 3d f3 eb 45 3d
       -0.059582677 -0.065322645 0.048225697 0.04832072
000060 d6 a6 a7 bd ee c1 3b bd 7e b5 10 bd c1 10 53 3d
       -0.08186118 -0.045839243 -0.035329334 0.05152965
000070 cb 94 47 bd 06 3d 81 bd f9 c4 2e bd 45 0b 2b 3d
       -0.048725884 -0.063104674 -0.042668317 0.041758794
000080 45 c4 82 3b 9b 2c 5a 3d f7 30 a2 bd 1f 04 ff 3c
       0.0039906823 0.053265195 -0.079194956 0.031129895
000090 9a fe 6b 3c 65 cc 93 3d bf ab 9b 3d b1 4d 9b bc
       0.014403963 0.072167195 0.07601117 -0.018957945
0000a0 fb b9 94 3d 7f 54 9b bd b8 c0 8b 3d e1 16 06 3d
       0.072620355 -0.07584476 0.068238676 0.032736663
0000b0 e7 46 6e bd 8b 1b 4e 3d fd c0 77 bd 21 d9 6b 3d
       -0.058173086 0.050319236 -0.060486782 0.057580117
0000c0 33 5e 5f bd 55 48 a7 bd 60 26 c0 bb 80 be 14 bd
       -0.054533195 -0.08168093 -0.0058639497 -0.036314487
0000d0 e3 20 83 3d 74 58 aa 3d 97 cb ee 3c c5 de 95 3d
       0.06402757 0.08317652 0.029149814 0.073178805
0000e0 cb ab 8b 3c 4a bd 1f 3d b7 38 8e bd 93 b4 87 3c
       0.01704969 0.03899888 -0.06944411 0.016565597
0000f0 44 3a c5 3c 77 cf 34 3d 5e 25 34 bd 40 40 21 bd
       0.024075635 0.044143166 -0.04398095 -0.039367914
000100 01 97 bb 3d 72 7b 1a 3d b5 ef 97 3d 1d cf 52 bb
       0.09159661 0.037715383 0.07418767 -0.0032166906
000110 09 ff 14 3e 53 f8 83 3d fc 27 0b bd 9d dd 28 3c
       0.14550413 0.064438485 -0.03397368 0.010306743
000120 c8 91 d2 3c 99 ba 1e bd c2 f7 c1 3b b6 9c 85 3d
       0.02570428 -0.038752172 0.0059194276 0.06524031
000130 27 cd f8 bc 31 5e ff 3b 3a bd a0 bd 45 54 1f bd
       -0.030371262 0.007793211 -0.07848592 -0.038898725
000140 97 c2 81 bd 6f c3 ad 3d 43 bf 72 bd 0e 96 98 3d
       -0.06335943 0.084845416 -0.059264433 0.07450496
000150 ff b7 63 bd a4 20 ac 3c f9 2e 81 3d 12 c9 89 bc
       -0.055595394 0.021011658 0.063077874 -0.01681951
000160 d0 c8 31 bc d8 a1 ec 3a 52 76 d5 3d 3f 72 97 3d
       -0.0108511 0.0018053604 0.104229584 0.073948376
000170 58 18 f0 bc 3e 59 de 3c 3a c6 40 bd 66 75 ee bc
       -0.029308483 0.027142163 -0.047064044 -0.029108714
000180 f9 a9 91 bd 9f 7c 1f 3d 61 2e 67 3d e3 9d 23 3c
       -0.07112498 0.038937207 0.056440715 0.009986374
000190 4e 41 e0 3b 0f a0 b0 bd 38 ab 60 bd 35 ec 3b bc
       0.0068437224 -0.08624279 -0.054850787 -0.01146989
0001a0 0b ec 07 3c a4 0d 64 3d a1 d9 9b 3c 5e 80 43 3d
       0.008296023 0.05567707 0.019024672 0.047729842
0001b0 57 79 30 bc 12 47 1c 3d d5 d7 4b bd b3 38 d4 bd
       -0.010771117 0.038153715 -0.04976638 -0.10362377
0001c0 61 9b 04 3e 6d 6b c0 3c 25 e9 29 3d 49 10 2e 3d
       0.12949897 0.023488725 0.04148211 0.042496
0001d0 89 fe dd 3d d7 3b 0a 3d b2 8a a9 3d df 56 a2 3c
       0.10839564 0.033748474 0.08278407 0.019816814
0001e0 ee 0f 16 3d bb 79 f1 bc ea 20 17 3c 97 45 36 bd
       0.036636285 -0.02947699 0.009224156 -0.04449996
0001f0 c5 a8 e7 3c 5c dc a9 3c 1e 8c 88 bb 06 d1 24 3d
       0.028278718 0.020734958 -0.004167094 0.040238403
000200 0c 3b 04 bd 2c fb 89 3d df 9f a1 3d ca 77 3f bd
       -0.032282874 0.0673736 0.07891821 -0.0467451
000210 b4 01 8d bd 28 f7 3c 3b f1 00 21 bd 19 0a 87 3d
       -0.068850905 0.002883384 -0.03930754 0.06593723
000220 c6 0d 5f bc a0 3c bc 3c 8f 21 c8 3c 17 51 21 3d
       -0.013614124 0.022978127 0.024430064 0.039383974
000230 b4 16 36 3d a5 c8 42 bc 5f b3 b2 3d f8 b0 5a 3d
       0.044455245 -0.011888658 0.087256186 0.053391427
000240 bd de 2a 3d 22 d8 4c bd f6 be c0 bb 77 a8 cd 3c
       0.041716326 -0.050010808 -0.0058821393 0.025104744
000250 bd 1a 93 3d 1e e8 06 bd 1c bb 15 3d fd 35 2f 3d
       0.07182834 -0.032936208 0.036555395 0.042776097
000260 e0 4f f3 3c 16 ed 5b bc 61 17 a5 3d b9 9f 69 bd
       0.029701173 -0.013423225 0.080611 -0.05703709
000270 04 0d 3a bc db 92 d1 bc e6 69 84 bb c1 99 c6 3c
       -0.011355642 -0.025582721 -0.0040409444 0.024243237
000280 a7 fb 9f bc 77 37 da bd 45 6d b1 bd 5d 7f a5 3c
       -0.019529177 -0.1065511 -0.0866342 0.020202333
000290 93 96 28 bd ac 6f a8 bc b4 7a ba bd c6 a0 6b bd
       -0.041159224 -0.020561062 -0.09105435 -0.057526372
0002a0 59 1c aa bd ce bf b1 3c 38 b7 7e 3d 02 8a 40 bb
       -0.08306188 0.021697905 0.06218645 -0.0029379134
0002b0 45 b1 fd bb 7c a9 ec bc 4e 05 6a bc f8 f0 a5 3d
       -0.0077420794 -0.02888941 -0.014283491 0.08102602
0002c0 cf c9 06 3c a4 64 17 3d 60 36 3d bd a2 b0 55 3c
       0.008226826 0.036961213 -0.046194434 0.013042601
0002d0 1c d4 cd bc bf fe ec 3c 53 22 9c 3d 9a 6c 24 3c
       -0.025125556 0.028930066 0.07623734 0.010035658
0002e0 d0 bd 96 3c fa 45 6d bc 23 7b 3f 3d 26 92 4d bd
       0.018401057 -0.014482016 0.04674829 -0.050188206
0002f0 49 80 a1 bd 3b e8 d7 bd 40 6b 61 bd 6e 6a 09 bd
       -0.078857966 -0.10542341 -0.055033922 -0.033548765
000300 67 ac a0 3d 0d e1 84 3d b6 26 ae 3d c3 20 31 bd
       0.07845383 0.064882375 0.08503477 -0.043244135
000310 ce 0f 78 3d 18 f7 a9 bb fa 96 97 bb 74 8d 90 3c
       0.060561948 -0.0051869266 -0.004626152 0.017645575
000320 02 d5 6d 3c 77 37 a2 bd 41 63 3b bd f4 61 60 bd
       0.014516117 -0.07920735 -0.045748953 -0.054780915
000330 94 25 ba bc 94 26 9f 3d fb c4 92 3d 83 ed d1 3c
       -0.022722997 0.0777103 0.07166477 0.02562595
000340 48 b4 52 bc 2b 2e d4 bc b0 03 36 3c 07 e1 79 ba
       -0.012860365 -0.02590092 0.011109278 -0.0009532128
000350 f8 02 6f 3d 83 36 6b bd 03 aa 05 be 6d e8 f5 bc
       0.05835244 -0.057425033 -0.13053136 -0.030018056
000360 40 e1 f5 3b b0 8b 2c bd 0f ca c0 3b d9 78 7f bc
       0.0075036585 -0.042125404 0.0058834623 -0.015592777
000370 1c ba 53 3d 1b b6 ef bc 31 9b a3 3d 83 dc 76 3d
       0.05169116 -0.02926164 0.07988585 0.06026889
000380 97 74 7f 3d ed f3 8d bd b1 37 fe bc 0b da 37 3d
       0.062367048 -0.06931291 -0.031032415 0.044885676
000390 24 6b 51 3d b3 02 5d 3d bb 07 be bd a6 c2 10 3c
       0.051127568 0.053957652 -0.09278818 0.00883547
0003a0 10 59 85 3c af 92 c4 3d 9d 40 43 3b 24 8f 80 3d
       0.01627782 0.0959829 0.0029793151 0.06277302
0003b0 ff 51 1b 3d a0 54 52 3d 10 d8 0a 3d 81 8e f9 3c
       0.037919994 0.051350236 0.03389746 0.030463459
0003c0 18 a5 17 3d 44 59 b2 bc 8e 84 c8 3d 48 3c e6 bc
       0.03702268 -0.02177108 0.09790908 -0.028104916
0003d0 75 b4 a1 bd 1e 90 44 3d ee a7 68 bd 8a ef 84 bd
       -0.078957476 0.047989003 -0.056800775 -0.06491001
0003e0 90 8a 88 3d 13 e9 1b bd 45 a7 c0 bd 32 c4 db bd
       0.06667054 -0.038064074 -0.09406904 -0.10730781
0003f0 fa 0c c0 bd 51 75 6c ba 93 3c 3b 3d 02 df dd bc
       -0.09377475 -0.0009020167 0.045712065 -0.027083877

res_blocks.1.conv2.bias f4 [16]
000000 37 ba 43 bd 37 65 10 3b 60 1e df 3c e2 bf 95 b9
       -0.04778501 0.0022032985 0.027236164 -0.00028562458
000010 96 db 9b 3c 36 d4 8e 3d 25 4a 16 bd 34 79 8d 3d
       0.019025605 0.0697407 -0.036691803 0.06907883
000020 5a 50 26 3d 75 86 96 3d f4 d8 65 3c de 71 88 3d
       0.040603973 0.073498644 0.014028776 0.066623434
000030 20 a0 46 bd 21 b6 9d bd 9b c5 59 bc 6f 82 a0 3a
       -0.04849255 -0.07700754 -0.013291742 0.0012245903

res_blocks.2.conv1.weight f4 [16, 16, 3, 3]
000000 7c 44 f6 3b f0 ef c4 3a 21 84 38 3d c2 35 f2 bc
       0.007515488 0.001502512 0.045047883 -0.02956665
000010 6e 13 8c bd 80 c9 8c bd 8e 2e 2e 3c 70 57 c5 3d
       -0.068396434 -0.068743706 0.010631217 0.09635818
000020 90 7d 04 3d 54 df a9 bd 42 4e 07 bd 62 fd 45 3d
       0.03234631 -0.082945496 -0.033033617 0.048337348
000030 7b df 2a 3d b5 d9 28 bd 63 e0 86 3b 0c fe 1e bd
       0.041717034 -0.041223247 0.0041161045 -0.038816497
000040 35 6c 74 3c 69 08 5c bb 85 19 c7 3b f8 b5 70 3d
       0.014918377 -0.0033574349 0.00607604 0.05876729
000050 63 e0 3e bd 70 f0 8f 3c c7 f1 fc bc c3 a6 03 3d
       -0.04660071 0.017570704 -0.030877007 0.03214146
000060 ce f2 a8 3c ff 93 b8 3d 5e e8 11 3d cc dd cd bc
       0.02062359 0.09012603 0.035621993 -0.025130175
000070 db 47 8b bc d6 1a b5 bd ab 46 3b bd d2 94 ec bc
       -0.017002037 -0.08843009 -0.04572169 -0.028879557
000080 ee ff 25 3d 2c 0f f4 bd e4 44 bc bd f7 2e c2 3b
       0.040527277 -0.11916956 -0.09192827 0.005926009
000090 1b cb 4b bd cc d3 e9 3d 32 03 a1 3c 9d 83 ec bc
       -0.049754243 0.1141735 0.019654844 -0.028871352
0000a0 2f 1d ed 3d 63 63 a7 3d 14 95 2f bd 6a 9f 1d 3d
       0.11577832 0.081732534 -0.04286678 0.038482107
0000b0 4a 70 9a 3c 6d 7b 04 bd af 85 36 bd a0 3a a0 3d
       0.018852372 -0.03234427 -0.044561084 0.07823682
0000c0 ce 32 88 bc 24 b3 a6 3d 1d be 10 3d 67 b1 b0 bd
       -0.016625788 0.08139637 0.035337556 -0.08627587
0000d0 6f 8d 98 bc 98 e1 00 bd fa 7e c5 bc d4 c5 6f bc
       -0.018622128 -0.031465143 -0.024108399 -0.014634568
0000e0 a5 2a 60 bd 87 76 0d 3e d2 3e 7b 3d 43 bc c4 3d
       -0.05472817 0.13814746 0.061339207 0.096062206
0000f0 6f 12 4f bd d7 88 6e 3c f4 e2 73 3d 87 e2 8c 3d
       -0.05055469 0.014558992 0.05954261 0.06879144
000100 65 10 aa bc 92 0d 1c bd 7d 0d 6e bc 51 99 48 bd
       -0.02075977 -0.03809888 -0.014529583 -0.04897434
000110 f2 97 b6 3d 1c 6b 3f bd 65 33 44 3d 4a a7 00 bc
       0.089157 -0.046733007 0.047900576 -0.007852385
000120 de 77 2c 3d ae eb ca 3d 37 c4 5a bd 68 33 64 3b
       0.0421065 0.099082336 -0.05340978 0.003482068
000130 7b 2c 2c bd 01 d7 95 3d 95 e3 a6 bd 4c d9 82 bd
       -0.042034607 0.07316399 -0.081488766 -0.06389102
000140 b3 06 86 bd 20 fe 80 bd b8 0a b3 bc c5 8e 77 bd
       -0.065442465 -0.062984705 -0.021855697 -0.06043889
000150 d1 23 11 3c 7b 4e 9b 3b c1 ab 1b bd 48 90 80 3d
       0.008858637 0.00473958 -0.038005594 0.062775195
000160 20 91 05 bb 87 f2 8a 3d a0 f6 99 bc c2 80 87 3d
       -0.002038069 0.0678454 -0.018794358 0.066163555
000170 fc 4b 0b 3d 24 9f 9d 3c 1d d1 a7 3d 9c fe 6b bd
       0.03400801 0.019240923 0.08194182 -0.05761586
000180 ca 67 96 bd c1 ab 90 3d 5a 70 8f 3d 4b 1e 15 bd
       -0.07344015 0.070640095 0.07003851 -0.036405843
000190 4a 67 13 3c 2e ee 35 bc 4b e9 86 3d 0a 9b bd 3d
       0.008996794 -0.01110415 0.06587466 0.09258087
0001a0 55 be ad bc eb 2c 05 3c 6e 6c 9b 3d 4f 15 f7 3c
       -0.021208921 0.008128385 0.07589041 0.030161528
0001b0 07 af cd bc f6 2b 5d bd 82 4a e5 bc d1 c1 98 3d
       -0.025107874 -0.053997003 -0.02798963 0.074588425
0001c0 d1 ae 96 3d 62 2f 90 3d a8 4e d9 3c 8f fc 46 bd
       0.07357562 0.070402876 0.026526764 -0.048580702
0001d0 38 70 a5 bc 04 48 3c bd 69 d1 a2 bc 07 08 b5 bd
       -0.020195112 -0.045967117 -0.019875245 -0.08839422
0001e0 14 3f a8 bb 07 f1 8e bd a0 d7 b3 bc 04 3f 13 bc
       -0.0051344726 -0.06979566 -0.021953404 -0.008987192
0001f0 9d 8a 3c 3d 8d c0 79 bd b3 d1 c1 3d 0a e0 7d 3d
       0.04603063 -0.060974646 0.09463825 0.06198124
000200 e9 43 44 bd 6c 28 2b bb 0b 01 ac bc 7f ad 1b bc
       -0.047916327 -0.0026116623 -0.020996591 -0.009501814
000210 be 2b 1e 3d d7 c5 e2 3c ea b4 49 3d 5b 38 f6 3c
       0.038615935 0.027682228 0.0492448 0.03005617
000220 e6 84 56 bd 67 bb 81 bd 92 87 52 3b d3 25 f3 3c
       -0.052372836 -0.06334572 0.0032124263 0.029681122
000230 e0 8f 99 bd 90 24 f7 bb b7 a2 12 bd 7f 6b 78 bd
       -0.07498145 -0.0075422004 -0.03579971 -0.06064939
000240 46 d8 94 bd fc 14 a2 bb 26 88 73 3d e7 57 c2 bc
       -0.072678134 -0.004946349 0.059456013 -0.023723556
000250 f7 c1 4f 3c fb 8d 82 bc 53 f3 7b bc 5c 0b 8d bd
       0.012680522 -0.015936842 -0.015377837 -0.06886932
000260 37 39 7c 3d ef 45 bb 3d 46 4e cc 3b 1e ae 08 bc
       0.061578 0.09144198 0.006234917 -0.008342294
000270 2e 91 b0 3d a9 4c 53 3d e5 3f 72 3d 90 90 43 bd
       0.08621441 0.05158678 0.059142966 -0.047745287
000280 10 a3 a3 3d ac 49 99 bd fb 81 82 bc 62 67 b7 bd
       0.07990086 -0.07484755 -0.01593112 -0.089552656
000290 b7 13 c7 3b cc 4b 85 3d 9f 09 a8 bd b1 d8 9d bd
       0.0060753482 0.06508598 -0.0820496 -0.07707346
0002a0 8c 22 7d 3d fd a9 76 3d 84 29 4d 3c 48 01 97 bb
       0.061800525 0.060220707 0.012522105 -0.004608307
0002b0 3f 45 9f 3d 65 7a cf bd a8 47 b0 3c 3b 92 f4 3b
       0.077768795 -0.10130767 0.021518543 0.007463721
0002c0 5f b6 6d bd ee 0d 7d bd 39 13 bc 3d 0f ba d8 3c
       -0.05803525 -0.061780863 0.09183354 0.026455907
0002d0 8a f6 1d bc 64 59 b9 3c 42 31 83 3d d8 2f 3c bc
       -0.009641299 0.022625633 0.064058796 -0.011486016
0002e0 9a ed 06 bc 23 c3 92 3d d1 16 89 3d 73 bb 2d 3d
       -0.00823536 0.071661256 0.06693805 0.042415094
0002f0 26 0d 5b bd 5c 27 ac bd bf 0b 2e bd 1d 71 1a bd
       -0.053479336 -0.08405945 -0.04249167 -0.03770553
000300 ac c4 94 bd cf 96 2d bc 25 35 91 3d fc dc 6f bd
       -0.07264075 -0.010595038 0.07090215 -0.058560356
000310 4c 57 84 b9 aa 0e 8c bd 9d 4e af bc 8b 52 ad 3d
       -0.00025242043 -0.068387344 -0.02139979 0.084630094
000320 bb 1d 1b 3b b0 d5 4e bd 6e 5a 2f bb f8 ab 6a bd
       0.0023668844 -0.050496757 -0.002675678 -0.05729291
000330 40 50 ea 3b e3 09 32 bc a9 6d 04 bd c6 90 7a 3d
       0.00715068 -0.010866615 -0.032331143 0.061173223
000340 e0 93 a4 bc 71 f6 6a bd 76 28 52 bd ec b2 a9 3c
       -0.020090044 -0.05736393 -0.051308118 0.0207152
000350 44 e2 fc 3c 47 af 67 bc 61 28 45 3d db 2e 83 bd
       0.03086961 -0.0141409105 0.04813421 -0.06405421
000360 c9 0e 1a bd 25 1b da 3c bd d0 4c bd ff 17 84 3b
       -0.037611756 0.026624272 -0.050003756 0.004031181
000370 7f 1a 0b bd c8 73 ec 3c 4c 63 32 bd b2 a3 2a 3c
       -0.033960816 0.028863803 -0.043551728 0.010415005
000380 47 8a 21 bd 74 b5 b0 3c 9d 5e 14 3c 2e 79 4a bd
       -0.039438512 0.021570899 0.009055761 -0.049431972
000390 d1 ad ef bb 50 64 76 3d 7d a3 70 3d a8 84 d3 bc
       -0.0073144217 0.06015426 0.058749665 -0.025820091
0003a0 4e bc ec bc 91 02 fb bc 63 02 5a bd a2 35 6d 3d
       -0.028898384 -0.030640872 -0.053224932 0.057912476
0003b0 c4 de 2f bd a9 32 b1 3d e5 19 a7 bc bd e0 1a 3d
       -0.042937055 0.08652241 -0.02039809 0.037811983
0003c0 c8 e2 dc 3b f6 e3 bb bc 15 dd 7a 3d 49 76 75 3d
       0.0067409016 -0.022935849 0.061245997 0.05992726
0003d0 e9 97 bc bc 17 68 29 bd c8 5b 17 bd 6b 9c 98 3d
       -0.023021655 -0.041359033 -0.036952764 0.07451709
0003e0 c8 a4 92 bd 8c 18 5f bd 28 c4 66 bc 1b 9d 7e 3d
       -0.07160336 -0.05446677 -0.014084853 0.062161546
0003f0 a9 59 6c bd 97 1b 12 3d d3 56 44 bd f4 6c c4 bc
       -0.057702694 0.035670843 -0.047934365 -0.023977734

res_blocks.2.conv1.bias f4 [16]
000000 c0 03 74 bc 74 17 8f 3d 55 bc ae bd 65 27 72 3d
       -0.014893472 0.06986895 -0.08532015 0.0591196
000010 ad 97 81 bd b0 51 2e 3d dd 97 3c 3d b5 aa 82 bd
       -0.06327758 0.042558372 0.046043266 -0.06380216
000020 01 ab c7 bc f3 5c ab 3d 77 ef 0a 3b 81 c9 44 bd
       -0.024373533 0.08367338 0.002119986 -0.04804373
000030 8a d1 31 3c 28 da 56 bd 68 b0 f3 bc 5e 73 97 bd
       0.010853181 -0.052454144 -0.029747203 -0.073950514
